_________________________________________________________________
Layer (type)                 Output Shape              Param #   
=================================================================
conv2d_1 (Conv2D)            (None, 52, 52, 32)        320       
_________________________________________________________________
activation_1 (Activation)    (None, 52, 52, 32)        0         
_________________________________________________________________
max_pooling2d_1 (MaxPooling2 (None, 26, 26, 32)        0         
_________________________________________________________________
conv2d_2 (Conv2D)            (None, 24, 24, 32)        9248      
_________________________________________________________________
activation_2 (Activation)    (None, 24, 24, 32)        0         
_________________________________________________________________
max_pooling2d_2 (MaxPooling2 (None, 12, 12, 32)        0         
_________________________________________________________________
conv2d_3 (Conv2D)            (None, 10, 10, 64)        18496     
_________________________________________________________________
activation_3 (Activation)    (None, 10, 10, 64)        0         
_________________________________________________________________
max_pooling2d_3 (MaxPooling2 (None, 5, 5, 64)          0         
_________________________________________________________________
flatten_1 (Flatten)          (None, 1600)              0         
_________________________________________________________________
dense_1 (Dense)              (None, 64)                102464    
_________________________________________________________________
activation_4 (Activation)    (None, 64)                0         
_________________________________________________________________
dropout_1 (Dropout)          (None, 64)                0         
_________________________________________________________________
dense_2 (Dense)              (None, 4)                 260       
_________________________________________________________________
activation_5 (Activation)    (None, 4)                 0         
=================================================================
Total params: 130,788
Trainable params: 130,788
Non-trainable params: 0
_________________________________________________________________
Found 1200 images belonging to 4 classes.
Found 160 images belonging to 4 classes.


Epoch 1/20
2018-06-03 23:26:57.957114: I tensorflow/core/platform/cpu_feature_guard.cc:140] Your CPU supports instructions that this TensorFlow binary was not compiled to use: SSE4.1 SSE4.2 AVX AVX2 FMA
…
